…
rch.Size([1, 1, 16384])\n</pre> <pre>===========================================================================================================================================================\nLayer (type (var_name))                                                          Input Shape               Output Shape              Param #\n===========================================================================================================================================================\nBorzoiLoRA (BorzoiLoRA)                                                          --                        [1, 1, 16352]             81,665\n\u251c\u2500ConvDna (conv_dna)                                                             [1, 4, 524288]            [1, 512, 262144]          --\n\u2502    \u2514\u2500ConditionalLoRAConv (conv_layer)                                          [1, 4, 524288]            [1, 512, 524288]          31,232\n\u2502    \u2502    \u2514\u2500EmbeddingMLP (lora_A_module)                                         --                        [1, 30, 60]               545,032\n\u2502    \u2502    \u2514\u2500EmbeddingMLP (lora_B_module)                                         --                        [1, 512, 30]              4,029,952\n\u2502    \u2502    \u2514\u2500Dropout (lora_dropout)                                               [1, 512, 524288]          [1, 512, 524288]          --\n\u2502    \u2514\u2500MaxPool1d (max_pool)                                                      [1, 512, 524288]          [1, 512, 262144]          --\n\u251c\u2500SequentialwithArgs (res_tower)                                                 [1, 512, 262144]          [1, 1280, 16384]          --\n\u2502    \u2514\u2500ConvBlock (0)                                                             [1, 512, 262144]          [1, 608, 262144]          --\n\u2502    \u2502    \u2514\u2500BatchNorm1d (norm)                                                   [1, 512, 262144]          [1, 512, 262144]          (1,024)\n\u2502    \u2502    \u2514\u2500GELU (activation)                                                    [1, 512, 262144]          [1, 512, 262144]          --\n\u2502    \u2502    \u2514\u2500ConditionalLoRAConv (conv_layer)                                     [1, 512, 262144]          [1, 608, 262144]          26,147,232\n\u2502    \u2514\u2500MaxPool1d (1)                                                             [1, 608, 262144]          [1, 608, 131072]          --\n\u2502    \u2514\u2500ConvBlock (2)                                                             [1, 608, 131072]          [1, 736, 131072]          --\n\u2502    \u2502    \u2514\u2500BatchNorm1d (norm)                                                   [1, 608, 131072]          [1, 608, 131072]          (1,216)\n\u2502    \u2502    \u2514\u2500GELU (activation)                                                    [1, 608, 131072]          [1, 608, 131072]          --\n\u2502    \u2502    \u2514\u2500ConditionalLoRAConv (conv_layer)                                     [1, 608, 131072]          [1, 736, 131072]          31,516,000\n\u2502    \u2514\u2500MaxPool1d (3)                                                             [1, 736, 131072]          [1, 736, 65536]           --\n\u2502    \u2514\u2500ConvBlock (4)                                                             [1, 736, 65536]           [1, 896, 65536]           --\n\u2502    \u2502    \u2514\u2500BatchNorm1d (norm)                                                   [1, 736, 65536]           [1, 736, 65536]           (1,472)\n\u2502    \u2502    \u2514\u2500GELU (activation)                                                    [1, 736, 65536]           [1, 736, 65536]           --\n\u2502    \u2502    \u2514\u2500ConditionalLoRAConv (conv_layer)                                     [1, 736, 65536]           [1, 896, 65536]           38,744,000\n\u2502    \u2514\u2500MaxPool1d (5)                                                             [1, 896, 65536]           [1, 896, 32768]           --\n\u2502    \u2514\u2500ConvBlock (6)                                                             [1, 896, 32768]           [1, 1056, 32768]          --\n\u2502    \u2502    \u2514\u2500BatchNorm1d (norm)                                                   [1, 896, 32768]           [1, 896, 32768]           (1,792)\n\u2502    \u2502    \u2514\u2500GELU (activation)                                                    [1, 896, 32768]           [1, 896, 32768]           --\n\u2502    \u2502    \u2514\u2500ConditionalLoRAConv (conv_layer)                                     [1, 896, 32768]           [1, 1056, 32768]          47,579,360\n\u2502    \u2514\u2500MaxPool1d (7)                                                             [1, 1056, 32768]          [1, 1056, 16384]          --\n\u2502    \u2514\u2500ConvBlock (8)                                                             [1, 1056, 16384]          [1, 1280, 16384]          --\n\u2502    \u2502    \u2514\u2500BatchNorm1d (norm)                                                   [1, 1056, 16384]          [1, 1056, 16384]          (2,112)\n\u2502    \u2502    \u2514\u2500GELU (activation)                                                    [1, 1056, 16384]          [1, 1056, 16384]          --\n\u2502    \u2502    \u2514\u2500ConditionalLoRAConv (conv_layer)                                     [1, 1056, 16384]          [1, 1280, 16384]          57,502,144\n\u251c\u2500Sequential (signal_encoder)                                                    [1, 1, 16384]             [1, 1280, 16384]          --\n\u2502    \u2514\u2500Conv1d (0)                                                                [1, 1, 16384]             [1, 128, 16384]           512\n\u2502    \u2514\u2500GroupNorm (1)                                                             [1, 128, 16384]           [1, 128, 16384]           256\n\u2502    \u2514\u2500SiLU (2)                                                                  [1, 128, 16384]           [1, 128, 16384]           --\n\u2502    \u2514\u2500Conv1d (3)                                                                [1, 128, 16384]           [1, 512, 16384]           197,120\n\u2502    \u2514\u2500GroupNorm (4)                                                             [1, 512, 16384]           [1, 512, 16384]           1,024\n\u2502    \u2514\u2500SiLU (5)                                                                  [1, 512, 16384]           [1, 512, 16384]           --\n\u2502    \u2514\u2500Conv1d (6)                                                                [1, 512, 16384]           [1, 1280, 16384]          1,967,360\n\u2502    \u2514\u2500GroupNorm (7)                                                             [1, 1280, 16384]          [1, 1280, 16384]          2,560\n\u251c\u2500SequentialwithArgs (unet1)                                                     [1, 1280, 16384]          [1, 1536, 8192]           --\n\u2502    \u2514\u2500MaxPool1d (0)                                                             [1, 1280, 16384]          [1, 1280, 8192]           --\n\u2502    \u2514\u2500ConvBlock (1)                                                             [1, 1280, 8192]           [1, 1536, 8192]           --\n\u2502    \u2502    \u2514\u2500BatchNorm1d (norm)                                                   [1, 1280, 8192]           [1, 1280, 8192]           (2,560)\n\u2502    \u2502    \u2514\u2500GELU (activation)                                                    [1, 1280, 8192]           [1, 1280, 8192]           --\n\u2502    \u2502    \u2514\u2500ConditionalLoRAConv (conv_layer)                                     [1, 1280, 8192]           [1, 1536, 8192]           71,183,360\n\u251c\u2500MaxPool1d (_max_pool)                                                          [1, 1536, 8192]           [1, 1536, 4096]           --\n\u251c\u2500ConvBlock (horizontal_conv0)                                                   [1, 1280, 16384]          [1, 1536, 16384]          --\n\u2502    \u2514\u2500BatchNorm1d (norm)                                                        [1, 1280, 16384]          [1, 1280, 16384]          (2,560)\n\u2502    \u2514\u2500GELU (activation)                                                         [1, 1280, 16384]          [1, 1280, 16384]          --\n\u2502    \u2514\u2500ConditionalLoRAConv (conv_layer)                                          [1, 1280, 16384]          [1, 1536, 16384]          1,967,616\n\u2502    \u2502    \u2514\u2500EmbeddingMLP (lora_A_module)                                         [1, 60]                   [1, 30, 1280]             9,951,232\n\u2502    \u2502    \u2514\u2500EmbeddingMLP (lora_B_module)                                         [1, 60]                   [1, 1536, 30]             11,924,992\n\u2502    \u2502    \u2514\u2500Dropout (lora_dropout)                                               [1, 1536, 16384]          [1, 1536, 16384]          --\n\u251c\u2500ConvBlock (horizontal_conv1)                                                   [1, 1536, 8192]           [1, 1536, 8192]           --\n\u2502    \u2514\u2500BatchNorm1d (norm)                                                        [1, 1536, 8192]           [1, 1536, 8192]           (3,072)\n\u2502    \u2514\u2500GELU (activation)                                                         [1, 1536, 8192]           [1, 1536, 8192]           --\n\u2502    \u2514\u2500ConditionalLoRAConv (conv_layer)                                          [1, 1536, 8192]           [1, 1536, 8192]           2,360,832\n\u2502    \u2502    \u2514\u2500EmbeddingMLP (lora_A_module)                                         [1, 60]                   [1, 30, 1536]             11,924,992\n\u2502    \u2502    \u2514\u2500EmbeddingMLP (lora_B_module)                                         [1, 60]                   [1, 1536, 30]             11,924,992\n\u2502    \u2502    \u2514\u2500Dropout (lora_dropout)                                               [1, 1536, 8192]           [1, 1536, 8192]           --\n\u251c\u2500SequentialwithArgs (transformer)                                               [1, 4096, 1536]           [1, 4096, 1536]           --\n\u2502    \u2514\u2500TransformerLayer (0)                                                      [1, 4096, 1536]           [1, 4096, 1536]           --\n\u2502    \u2502    \u2514\u2500SequentialwithArgs (layers)                                          [1, 4096, 1536]           [1, 4096, 1536]           88,145,920\n\u2502    \u2514\u2500TransformerLayer (1)                                                      [1, 4096, 1536]           [1, 4096, 1536]           --\n\u2502    \u2502    \u2514\u2500SequentialwithArgs (layers)                                          [1, 4096, 1536]           [1, 4096, 1536]           88,145,920\n\u2502    \u2514\u2500TransformerLayer (2)                                                      [1, 4096, 1536]           [1, 4096, 1536]           --\n\u2502    \u2502    \u2514\u2500SequentialwithArgs (layers)                                          [1, 4096, 1536]           [1, 4096, 1536]           88,145,920\n\u2502    \u2514\u2500TransformerLayer (3)                                                      [1, 4096, 1536]           [1, 4096, 1536]           --\n\u2502    \u2502    \u2514\u2500SequentialwithArgs (layers)                                          [1, 4096, 1536]           [1, 4096, 1536]           88,145,920\n\u2502    \u2514\u2500TransformerLayer (4)                                                      [1, 4096, 1536]           [1, 4096, 1536]           --\n\u2502    \u2502    \u2514\u2500SequentialwithArgs (layers)                                          [1, 4096, 1536]           [1, 4096, 1536]           88,145,920\n\u2502    \u2514\u2500TransformerLayer (5)                                                      [1, 4096, 1536]           [1, 4096, 1536]           --\n\u2502    \u2502    \u2514\u2500SequentialwithArgs (layers)                                          [1, 4096, 1536]           [1, 4096, 1536]           88,145,920\n\u2502    \u2514\u2500TransformerLayer (6)                                                      [1, 4096, 1536]           [1, 4096, 1536]           --\n\u2502    \u2502    \u2514\u2500SequentialwithArgs (layers)                                          [1, 4096, 1536]           [1, 4096, 1536]           88,145,920\n\u2502    \u2514\u2500TransformerLayer (7)                                                      [1, 4096, 1536]           [1, 4096, 1536]           --\n\u2502    \u2502    \u2514\u2500SequentialwithArgs (layers)                                          [1, 4096, 1536]           [1, 4096, 1536]           88,145,920\n\u251c\u2500SequentialwithArgs (upsampling_unet1)                                          [1, 1536, 4096]           [1, 1536, 8192]           --\n\u2502    \u2514\u2500ConvBlock (0)                                                             [1, 1536, 4096]           [1, 1536, 4096]           --\n\u2502    \u2502    \u2514\u2500BatchNorm1d (norm)                                                   [1, 1536, 4096]           [1, 1536, 4096]           (3,072)\n\u2502    \u2502    \u2514\u2500GELU (activation)                                                    [1, 1536, 4096]           [1, 1536, 4096]           --\n\u2502    \u2502    \u2514\u2500ConditionalLoRAConv (conv_layer)                                     [1, 1536, 4096]           [1, 1536, 4096]           26,210,816\n\u2502    \u2514\u2500Upsample (1)                                                              [1, 1536, 4096]           [1, 1536, 8192]           --\n\u251c\u2500ConvBlock (separable1)                                                         [1, 1536, 8192]           [1, 1536, 8192]           --\n\u2502    \u2514\u2500Identity (norm)                                                           [1, 1536, 8192]           [1, 1536, 8192]           --\n\u2502    \u2514\u2500Identity (activation)                                                     [1, 1536, 8192]           [1, 1536, 8192]           --\n\u2502    \u2514\u2500Sequential (conv_layer)                                                   --                        --                        --\n\u2502    \u2502    \u2514\u2500ConditionalLoRAConv (0)                                              [1, 1536, 8192]           [1, 1536, 8192]           12,035,162\n\u2502    \u2502    \u2514\u2500ConditionalLoRAConv (1)                                              [1, 1536, 8192]           [1, 1536, 8192]           10,420,736\n\u251c\u2500SequentialwithArgs (upsampling_unet0)                                          [1, 1536, 8192]           [1, 1536, 16384]          --\n\u2502    \u2514\u2500ConvBlock (0)                                                             [1, 1536, 8192]           [1, 1536, 8192]           --\n\u2502    \u2502    \u2514\u2500BatchNorm1d (norm)                                                   [1, 1536, 8192]           [1, 1536, 8192]           (3,072)\n\u2502    \u2502    \u2514\u2500GELU (activation)                                                    [1, 1536, 8192]           [1, 1536, 8192]           --\n\u2502    \u2502    \u2514\u2500ConditionalLoRAConv (conv_layer)                                     [1, 1536, 8192]           [1, 1536, 8192]           26,210,816\n\u2502    \u2514\u2500Upsample (1)                                                              [1, 1536, 8192]           [1, 1536, 16384]          --\n\u251c\u2500ConvBlock (separable0)                                                         [1, 1536, 16384]          [1, 1536, 16384]          --\n\u2502    \u2514\u2500Identity (norm)                                                           [1, 1536, 16384]          [1, 1536, 16384]          --\n\u2502    \u2514\u2500Identity (activation)                                                     [1, 1536, 16384]          [1, 1536, 16384]          --\n\u2502    \u2514\u2500Sequential (conv_layer)                                                   --                        --                        --\n\u2502    \u2502    \u2514\u2500ConditionalLoRAConv (0)                                              [1, 1536, 16384]          [1, 1536, 16384]          12,035,162\n\u2502    \u2502    \u2514\u2500ConditionalLoRAConv (1)                                              [1, 1536, 16384]          [1, 1536, 16384]          10,420,736\n\u251c\u2500SequentialwithArgs (final_joined_convs)                                        [1, 1536, 16384]          [1, 1920, 16384]          --\n\u2502    \u2514\u2500ConvBlock (0)                                                             [1, 1536, 16384]          [1, 1920, 16384]          --\n\u2502    \u2502    \u2514\u2500BatchNorm1d (norm)                                                   [1, 1536, 16384]          [1, 1536, 16384]          (3,072)\n\u2502    \u2502    \u2514\u2500GELU (activation)                                                    [1, 1536, 16384]          [1, 1536, 16384]          --\n\u2502    \u2502    \u2514\u2500ConditionalLoRAConv (conv_layer)                                     [1, 1536, 16384]          [1, 1920, 16384]          56,407,424\n\u2502    \u2514\u2500Dropout (1)                                                               [1, 1920, 16384]          [1, 1920, 16384]          --\n\u2502    \u2514\u2500GELU (2)                                                                  [1, 1920, 16384]          [1, 1920, 16384]          --\n\u251c\u2500TargetLengthCrop (crop)                                                        [1, 1920, 16384]          [1, 1920, 16352]          --\n\u251c\u2500OutputHead (final_output_head)                                                 [1, 1920, 16352]          [1, 1, 16352]             --\n\u2502    \u2514\u2500ConditionalLoRAConv (0)                                                   [1, 1920, 16352]          [1, 1, 16352]             1,921\n\u2502    \u2502    \u2514\u2500EmbeddingMLP (lora_A_module)                                         --                        [1, 1, 1920]              575,872\n\u2502    \u2502    \u2514\u2500EmbeddingMLP (lora_B_module)                                         --                        [1, 1, 1]                 82,689\n\u2502    \u2502    \u2514\u2500Dropout (lora_dropout)                                               [1, 1, 16352]             [1, 1, 16352]             --\n\u2502    \u2514\u2500Softplus (1)                                                              [1, 1, 16352]             [1, 1, 16352]             --\n===========================================================================================================================================================\nTotal params: 1,189,177,183\nTrainable params: 1,011,818,015\nNon-trainable params: 177,359,168\nTotal mult-adds (Units.GIGABYTES): 36.48\n======================================================================================================
…
